…
e, random_init=False, softmax_linear=False, act_type='softmax', weight_tie=True, alpha=5, tokenizer_maxvocab=5000, tokenizer_uncased=False, capture_range=None, deepspeed=False, local_rank=0, global_rank=0, vis_step=10, num_workers=24, world_size=0, model_config=None, deepspeed_config='ds_config.json', max_len=128, hidden_dim=512, ffn_dim=2048, enc_num_layers=6, dec_num_layers=6, num_head=8, bias=0, dropout=0.1, layernorm_eps=1e-06, pos_encoding=0, vocab_size=5000)
Transformer(
  (encoder): Encoder(
    (dropout_layer): Dropout(p=0.1, inplace=False)
    (emb_layer): Embeddings(
      (emb_layer): Embedding(5000, 512, padding_idx=0)
    )
    (pos_layer): PositionalEncoding(
      (emb_layer): Embedding(128, 512)
    )
    (encoders): ModuleList(
      (0-5): 6 x EncoderLayer(
        (dropout_layer): Dropout(p=0.1, inplace=False)
        (layer_norm): LayerNorm((512,), eps=1e-06, elementwise_affine=True)
        (self_attention): MultiHeadAttention(
          (q_proj): Linear(in_features=512, out_features=512, bias=False)
          (k_proj): Linear(in_features=512, out_features=512, bias=False)
          (v_proj): Linear(in_features=512, out_features=512, bias=False)
          (attn_proj): Linear(in_features=512, out_features=512, bias=False)
          (eye_linear_q): Linear(in_features=64, out_features=64, bias=False)
          (eye_linear_k): Linear(in_features=64, out_features=64, bias=False)
        )
        (positionWiseFeedForward): PositionWiseFeedForward(
          (FFN1): Sequential(
            (0): Linear(in_features=512, out_features=2048, bias=False)
            (1): GELU(approximate='none')
            (2): Dropout(p=0.1, inplace=False)
          )
          (FFN2): Sequential(
            (0): Linear(in_features=2048, out_features=512, bias=False)
          )
        )
      )
    )
  )
  (decoder): Decoder(
    (dropout_layer): Dropout(p=0.1, inplace=False)
    (emb_layer): Embeddings(
      (emb_layer): Embedding(5000, 512, padding_idx=0)
    )
    (pos_layer): PositionalEncoding(
      (emb_layer): Embedding(128, 512)
    )
    (decoders): ModuleList(
      (0-5): 6 x DecoderLayer(
        (dropout_layer): Dropout(p=0.1, inplace=False)
        (layer_norm): LayerNorm((512,), eps=1e-06, elementwise_affine=True)
        (masked_self_attention): MultiHeadAttention(
          (q_proj): Linear(in_features=512, out_features=512, bias=False)
          (k_proj): Linear(in_features=512, out_features=512, bias=False)
          (v_proj): Linear(in_features=512, out_features=512, bias=False)
          (attn_proj): Linear(in_features=512, out_features=512, bias=False)
          (eye_linear_q): Linear(in_features=64, out_features=64, bias=False)
          (eye_linear_k): Linear(in_features=64, out_features=64, bias=False)
        )
        (enc_dec_attention): MultiHeadAttention(
          (q_proj): Linear(in_features=512, out_features=512, bias=False)
          (k_proj): Linear(in_features=512, out_features=512, bias=False)
          (v_proj): Linear(in_features=512, out_features=512, bias=False)
          (attn_proj): Linear(in_features=512, out_features=512, bias=False)
          (eye_linear_q): Linear(in_features=64, out_features=64, bias=False)
          (eye_linear_k): Linear(in_features=64, out_features=64, bias=False)
        )
        (positionWiseFeedForward): PositionWiseFeedForward(
          (FFN1): Sequential(
            (0): Linear(in_features=512, out_features=2048, bias=False)
            (1): GELU(approximate='none')
            (2): Dropout(p=0.1, inplace=False)
          )
          (FFN2): Sequential(
            (0): Linear(in_features=2048, out_features=512, bias=False)
          )
        )
      )
    )
  )
  (fc): Linear(in_features=512, out_features=5000, bias=True)
)
  0%|          | 0/69514 [00:00<?, ?it/s]Processing 0.00:   0%|          | 0/69514 [00:00<?, ?it/s]Processing 0.00:   0%|          | 1/69514 [00:01<33:18:26,  1.72s/it]Processing 63.35:   0%|          | 1/69514 [00:01<33:18:26,  1.72s/it]Processing 63.35:   0%|          | 2/69514 [00:02<18:25:25,  1.05it/s]Processing 44.54:   0%|          | 2/
…
